…
n=False, save_period=-1, save_txt=False, scale=0.5, seed=0, shear=0.0, show=False, show_boxes=True, show_conf=True, show_labels=True, simplify=True, single_cls=False, source=None, split=val, stream_buffer=False, task=detect, time=None, tracker=botsort.yaml, translate=0.1, val=True, verbose=True, vid_stride=1, visualize=False, warmup_bias_lr=0.1, warmup_epochs=3.0, warmup_momentum=0.8, weight_decay=0.0005, workers=8, workspace=None

                   from  n    params  module                                       arguments                     
  0                  -1  1       464  ultralytics.nn.modules.conv.Conv             [3, 16, 3, 2]                 
  1                  -1  1      4672  ultralytics.nn.modules.conv.Conv             [16, 32, 3, 2]                
  2                  -1  1      7360  ultralytics.nn.modules.block.C2f             [32, 32, 1, True]             
  3                  -1  1     18560  ultralytics.nn.modules.conv.Conv             [32, 64, 3, 2]                
  4                  -1  2     49664  ultralytics.nn.modules.block.C2f             [64, 64, 2, True]             
  5                  -1  1     73984  ultralytics.nn.modules.conv.Conv             [64, 128, 3, 2]               
  6                  -1  2    197632  ultralytics.nn.modules.block.C2f             [128, 128, 2, True]           
  7                  -1  1     41344  ultralytics.nn.modules.block.SPPF            [128, 128, 5]                 
  8                  -1  1    115456  ultralytics.nn.modules.block.C2f             [128, 128, 1]                 
  9                  -1  1         0  torch.nn.modules.upsampling.Upsample         [None, 2, 'nearest']          
 10             [-1, 4]  1         0  ultralytics.nn.modules.conv.Concat           [1]                           
 11                  -1  1     37248  ultralytics.nn.modules.block.C2f             [192, 64, 1]                  
 12                  -1  1     36992  ultralytics.nn.modules.conv.Conv             [64, 64, 3, 2]                
 13             [-1, 8]  1         0  ultralytics.nn.modules.conv.Concat           [1]                           
 14                  -1  1    123648  ultralytics.nn.modules.block.C2f             [192, 128, 1]                 
 15            [11, 14]  1    386060  ultralytics.nn.modules.head.Detect           [62, [64, 128]]               
YOLOv8n (nc=62) - 去小核 summary: 96 layers, 1,093,084 parameters, 1,093,068 gradients, 6.7 GFLOPs

Freezing layer 'model.15.dfl.conv.weight'
AMP: running Automatic Mixed Precision (AMP) checks...
AMP: checks passed ✅
WARNING ⚠️ imgsz=[196] must be multiple of max stride 32, updating to [224]
train: Fast image access ✅ (ping: 0.0±0.0 ms, read: 373.3±104.8 MB/s, size: 7.6 KB)
…
